prescription_three/iris_lite.tflite (tflite, 1756 bytes, 4 tensors)

sequential/dense/MatMul/ReadVariableOp/transpose f4 [16, 4]
000000 5d 88 17 3f fe d0 ee 3d 3d d7 ce be 1b 18 d8 be
       0.5919245 0.11660956 -0.4039859 -0.4220589
000010 a3 c1 18 3e 8d 95 06 be ac f0 ba 3e 05 91 0f bc
       0.14917617 -0.13142987 0.36511743 -0.008762603
000020 6b ca b8 be 29 c2 aa be 5e 4a 36 3f 3a e9 48 3f
       -0.36091933 -0.33351257 0.71207225 0.78480875
000030 9d 45 ef 3e 18 77 aa bd ea f1 34 bf cd 05 41 3e
       0.46732798 -0.083234966 -0.7068163 0.18849869
000040 84 9b d3 3d 1c 45 47 bf f5 19 81 3f 81 58 03 be
       0.103323966 -0.7783983 1.0086046 -0.1282673
000050 8c 67 69 be 2f 46 2a be 95 a0 90 3b b2 af 16 3f
       -0.22793406 -0.16628335 0.004413674 0.5886184
000060 60 dc 0f be 0c fe 18 bd 70 c7 fc 3e d7 79 01 3f
       -0.1404891 -0.037351653 0.4937091 0.5057654
000070 4c 1a a4 be 64 7e 65 bf d2 26 7c 3f 10 1f 65 3f
       -0.32051313 -0.8964598 0.98496735 0.8950052
000080 37 4a 82 be e2 f3 21 be 87 5c 9f 3d d2 69 4e 3f
       -0.25447246 -0.1581569 0.0778132 0.8063022
000090 90 1c c7 be fb 52 09 3f 36 5c 7d be 5a 75 ca 3e
       -0.3888898 0.53642243 -0.24742207 0.39542657
0000a0 28 47 98 3e 92 5e a7 be 09 cd 1f 3f e5 6c 44 be
       0.29741788 -0.3268934 0.62422234 -0.19182165
0000b0 0b 87 c5 be a5 e7 23 bf 28 b6 38 3d f4 83 3e 3f
       -0.38579592 -0.64025337 0.045095593 0.74420094
0000c0 72 82 e8 3c be 66 34 be 76 de 5d 3e 10 1f 5a bf
       0.028382514 -0.17617318 0.21666893 -0.8520365
0000d0 59 9c 54 3e 81 e8 b1 be 9f 68 df 3d 2d a5 3b bc
       0.20762767 -0.347477 0.10908627 -0.011452955
0000e0 23 f9 e0 be 68 b9 09 3f 26 6a 13 bf b9 52 0b 3f
       -0.43940076 0.5379853 -0.57583845 0.544231
0000f0 b6 53 25 3f ae bd 4f 3f e4 d5 84 bf 09 12 bf be
       0.6458086 0.81148803 -1.0377774 -0.37318447

sequential/dense/MatMul_bias f4 [16]
000000 e8 03 16 3e d0 1e c9 3b 8b 7f 38 be d6 58 0e 3e
       0.14649928 0.0061377063 -0.18017404 0.13901076
000010 bb 7d d6 bd f7 9d f0 bd bb 92 95 bd e6 bd 74 be
       -0.104732 -0.117488794 -0.07303377 -0.23900566
000020 bc 69 4f be 3d fd 1b 3d 8a 87 01 be ba cf 07 be
       -0.20255178 0.038083304 -0.1264936 -0.13262835
000030 d2 7d 1a 3e 12 fa 86 bd 74 c5 31 bd 0b 6e 51 3e
       0.15087059 -0.06590666 -0.043401197 0.20452134

sequential/dense_1/MatMul/ReadVariableOp/transpose f4 [3, 16]
000000 74 b6 23 3f 79 6a 2b bf f2 cc e5 be a0 ab 28 3d
       0.63950276 -0.6695934 -0.44882923 0.0411793
000010 50 4a 11 bf 08 70 01 bf eb 21 bb be ce 06 09 bf
       -0.56754017 -0.5056157 -0.36549315 -0.5352601
000020 32 fc 82 be 7c 2f dd 3d 16 6b 89 3e c1 ea fd bd
       -0.25583035 0.108000726 0.26839513 -0.123982914
000030 eb 51 10 3e 4f 23 c5 be 49 5d 14 3f 88 7c 60 3f
       0.14093749 -0.385035 0.5795484 0.8769002
000040 eb 00 86 3e 87 c8 aa 3e 3f d8 02 bf 38 40 9e 3e
       0.26172575 0.33356115 -0.51111215 0.3090837
000050 25 64 0c 3f 04 a1 de be 17 54 e0 bd e1 19 c4 3d
       0.5484031 -0.4348222 -0.10953539 0.095752485
000060 fb fb 07 bf 0b 64 e4 3d e9 85 0a 3e f3 bc 22 be
       -0.53118867 0.11151894 0.13527645 -0.15892391
000070 bb 0b 14 3f c6 72 9a be 57 bf e8 be 96 ba 27 be
       0.578304 -0.3016569 -0.4545848 -0.1637977
000080 dc c9 05 bf 1f 55 c8 3d 0b 2d 27 3f 1b c0 e4 be
       -0.5226114 0.097818606 0.65303105 -0.44677815
000090 f1 c6 6a 3f 9b 0f 6b 3e a4 f8 b2 3e d5 de bc 3f
       0.9170981 0.22955172 0.34955323 1.4755503
0000a0 82 d4 1f 3f dc 00 14 3b 07 7f 36 3f 27 3d 42 3f
       0.62433636 0.002258352 0.7128758 0.7587456
0000b0 c6 6b 8c be f4 b6 fb bc 97 79 97 3c 1d 82 9d bf
       -0.27425975 -0.030726887 0.018490596 -1.2305332

sequential/dense_1/MatMul_bias f4 [3]
000000 31 78 79 3d 4a a4 33 3e 6d 02 72 be
       0.06090564 0.1754314 -0.23633738
